…
Adding avg_pool (AveragePooling).
Adding data_104 (Data).
Adding conv10 (Convolution3d).
Adding data_105 (Data).
Adding bn10_add_tensor (EltwiseAdd).
Adding bn10_rleu (ReLU).
======================================================
      Summary of the network.
======================================================
____________________________________________________________________________________________
Layer (type)                             Output shape                 Parameters  
____________________________________________________________________________________________
data_105 (Data)                          (1, 1, 1, 1000)                  0       
____________________________________________________________________________________________
data_104 (Data)                          (1000, 1, 1, 1280)               0       
____________________________________________________________________________________________
data_103 (Data)                          (1, 7, 7, 1280)                  0       
____________________________________________________________________________________________
data_102 (Data)                          (1280, 1, 1, 320)                0       
____________________________________________________________________________________________
data_101 (Data)                          (1, 7, 7, 320)                   0       
____________________________________________________________________________________________
data_100 (Data)                          (320, 1, 1, 960)                 0       
____________________________________________________________________________________________
data_99 (Data)                           (1, 7, 7, 960)                   0       
____________________________________________________________________________________________
data_98 (Data)                           (1, 3, 3, 960)                   0       
____________________________________________________________________________________________
data_97 (Data)                           (1, 7, 7, 960)                   0       
____________________________________________________________________________________________
data_96 (Data)                           (960, 1, 1, 160)                 0       
____________________________________________________________________________________________
data_95 (Data)                           (1, 7, 7, 160)                   0       
____________________________________________________________________________________________
data_94 (Data)                           (160, 1, 1, 960)                 0       
____________________________________________________________________________________________
data_93 (Data)                           (1, 7, 7, 960)                   0       
____________________________________________________________________________________________
data_92 (Data)                           (1, 3, 3, 960)                   0       
____________________________________________________________________________________________
data_91 (Data)                           (1, 7, 7, 960)                   0       
____________________________________________________________________________________________
data_90 (Data)                           (960, 1, 1, 160)                 0       
____________________________________________________________________________________________
data_89 (Data)                           (1, 7, 7, 160)                   0       
____________________________________________________________________________________________
data_88 (Data)                           (160, 1, 1, 960)                 0       
____________________________________________________________________________________________
data_87 (Data)                           (1, 7, 7, 960)                   0       
____________________________________________________________________________________________
data_86 (Data)                           (1, 3, 3, 960)                   0       
____________________________________________________________________________________________
data_85 (Data)                           (1, 7, 7, 960)                   0       
____________________________________________________________________________________________
data_84 (Data)                           (960, 1, 1, 160)                 0       
____________________________________________________________________________________________
data_83 (Data)                           (1, 7, 7, 160)                   0       
____________________________________________________________________________________________
data_82 (Data)                           (160, 1, 1, 576)                 0       
____________________________________________________________________________________________
data_81 (Data)                           (1, 7, 7, 576)                   0       
____________________________________________________________________________________________
data_80 (Data)                           (1, 3, 3, 576)                   0       
____________________________________________________________________________________________
data_79 (Data)                           (1, 14, 14, 576)                 0       
____________________________________________________________________________________________
data_78 (Data)                           (576, 1, 1, 96)                  0       
____________________________________________________________________________________________
data_77 (Data)                           (1, 14, 14, 96)                  0       
____________________________________________________________________________________________
data_76 (Data)                           (96, 1, 1, 576)                  0       
____________________________________________________________________________________________
data_75 (Data)                           (1, 14, 14, 576)                 0       
____________________________________________________________________________________________
data_74 (Data)                           (1, 3, 3, 576)                   0       
____________________________________________________________________________________________
data_73 (Data)                           (1, 14, 14, 576)                 0       
____________________________________________________________________________________________
data_72 (Data)                           (576, 1, 1, 96)                  0       
____________________________________________________________________________________________
data_71 (Data)                           (1, 14, 14, 96)                  0       
____________________________________________________________________________________________
data_70 (Data)                           (96, 1, 1, 576)                  0       
____________________________________________________________________________________________
data_69 (Data)                           (1, 14, 14, 576)                 0       
____________________________________________________________________________________________
data_68 (Data)                           (1, 3, 3, 576)                   0       
____________________________________________________________________________________________
data_67 (Data)                           (1, 14, 14, 576)                 0       
____________________________________________________________________________________________
data_66 (Data)                           (576, 1, 1, 96)                  0       
____________________________________________________________________________________________
data_65 (Data)                           (1, 14, 14, 96)                  0       
____________________________________________________________________________________________
data_64 (Data)                           (96, 1, 1, 384)                  0       
____________________________________________________________________________________________
data_63 (Data)                           (1, 14, 14, 384)                 0       
____________________________________________________________________________________________
data_62 (Data)                           (1, 3, 3, 384)                   0       
____________________________________________________________________________________________
data_61 (Data)                           (1, 14, 14, 384)                 0       
____________________________________________________________________________________________
data_60 (Data)                           (384, 1, 1, 64)                  0       
____________________________________________________________________________________________
data_59 (Data)                           (1, 14, 14, 64)                  0       
____________________________________________________________________________________________
data_58 (Data)                           (64, 1, 1, 384)                  0       
____________________________________________________________________________________________
data_57 (Data)                           (1, 14, 14, 384)                 0       
____________________________________________________________________________________________
data_56 (Data)                           (1, 3, 3, 384)                   0       
____________________________________________________________________________________________
data_55 (Data)                           (1, 14, 14, 384)                 0       
____________________________________________________________________________________________
data_54 (Data)                           (384, 1, 1, 64)                  0       
____________________________________________________________________________________________
data_53 (Data)                           (1, 14, 14, 64)                  0       
____________________________________________________________________________________________
data_52 (Data)                           (64, 1, 1, 384)                  0       
____________________________________________________________________________________________
data_51 (Data)                           (1, 14, 14, 384)                 0       
____________________________________________________________________________________________
data_50 (Data)                           (1, 3, 3, 384)                   0       
____________________________________________________________________________________________
data_49 (Data)                           (1, 14, 14, 384)                 0       
____________________________________________________________________________________________
data_48 (Data)                           (384, 1, 1, 64)                  0       
____________________________________________________________________________________________
data_47 (Data)                           (1, 14, 14, 64)                  0       
____________________________________________________________________________________________
data_46 (Data)                           (64, 1, 1, 384)                  0       
____________________________________________________________________________________________
data_45 (Data)                           (1, 14, 14, 384)                 0       
____________________________________________________________________________________________
data_44 (Data)                           (1, 3, 3, 384)                   0       
____________________________________________________________________________________________
data_43 (Data)                           (1, 14, 14, 384)                 0       
____________________________________________________________________________________________
data_42 (Data)                           (384, 1, 1, 64)                  0       
____________________________________________________________________________________________
data_41 (Data)                           (1, 14, 14, 64)                  0       
____________________________________________________________________________________________
data_40 (Data)                           (64, 1, 1, 192)                  0       
____________________________________________________________________________________________
data_39 (Data)                           (1, 14, 14, 192)                 0       
____________________________________________________________________________________________
data_38 (Data)                           (1, 3, 3, 192)                   0       
____________________________________________________________________________________________
data_37 (Data)                           (1, 28, 28, 192)                 0       
____________________________________________________________________________________________
data_36 (Data)                           (192, 1, 1, 32)                  0       
____________________________________________________________________________________________
data_35 (Data)                           (1, 28, 28, 32)                  0       
____________________________________________________________________________________________
data_34 (Data)                           (32, 1, 1, 192)                  0       
____________________________________________________________________________________________
data_33 (Data)                           (1, 28, 28, 192)                 0       
____________________________________________________________________________________________
data_32 (Data)                           (1, 3, 3, 192)                   0       
____________________________________________________________________________________________
data_31 (Data)                           (1, 28, 28, 192)                 0       
____________________________________________________________________________________________
data_30 (Data)                           (192, 1, 1, 32)                  0       
____________________________________________________________________________________________
data_29 (Data)                           (1, 28, 28, 32)                  0       
____________________________________________________________________________________________
data_28 (Data)                           (32, 1, 1, 192)                  0       
____________________________________________________________________________________________
data_27 (Data)                           (1, 28, 28, 192)                 0       
____________________________________________________________________________________________
data_26 (Data)                           (1, 3, 3, 192)                   0       
____________________________________________________________________________________________
data_25 (Data)                           (1, 28, 28, 192)                 0       
____________________________________________________________________________________________
data_24 (Data)                           (192, 1, 1, 32)                  0       
____________________________________________________________________________________________
data_23 (Data)                           (1, 28, 28, 32)                  0       
____________________________________________________________________________________________
data_22 (Data)                           (32, 1, 1, 144)                  0       
____________________________________________________________________________________________
data_21 (Data)                           (1, 28, 28, 144)                 0       
____________________________________________________________________________________________
data_20 (Data)                           (1, 3, 3, 144)                   0       
____________________________________________________________________________________________
data_19 (Data)                           (1, 56, 56, 144)                 0       
____________________________________________________________________________________________
data_18 (Data)                           (144, 1, 1, 24)                  0       
____________________________________________________________________________________________
data_17 (Data)                           (1, 56, 56, 24)                  0       
____________________________________________________________________________________________
data_16 (Data)                           (24, 1, 1, 144)                  0       
____________________________________________________________________________________________
data_15 (Data)                           (1, 56, 56, 144)                 0       
____________________________________________________________________________________________
data_14 (Data)                           (1, 3, 3, 144)                   0       
____________________________________________________________________________________________
data_13 (Data)                           (1, 56, 56, 144)                 0       
____________________________________________________________________________________________
data_12 (Data)                           (144, 1, 1, 24)                  0       
____________________________________________________________________________________________
data_11 (Data)                           (1, 56, 56, 24)                  0       
____________________________________________________________________________________________
data_10 (Data)                           (24, 1, 1, 96)                   0       
____________________________________________________________________________________________
data_9 (Data)                            (1, 56, 56, 96)                  0       
____________________________________________________________________________________________
data_8 (Data)                            (1, 3, 3, 96)                    0       
____________________________________________________________________________________________
data_7 (Data)                            (1, 112, 112, 96)                0       
____________________________________________________________________________________________
data_6 (Data)                            (96, 1, 1, 16)                   0       
____________________________________________________________________________________________
data_5 (Data)                            (1, 112, 112, 16)                0       
____________________________________________________________________________________________
data_4 (Data)                            (16, 1, 1, 32)                   0       
____________________________________________________________________________________________
data_3 (Data)                            (1, 112, 112, 32)                0       
____________________________________________________________________________________________
data_2 (Data)                            (1, 3, 3, 32)                    0       
____________________________________________________________________________________________
data_1 (Data)                            (1, 112, 112, 32)                0       
____________________________________________________________________________________________
data (Data)                              (32, 3, 3, 3)                    0       
____________________________________________________________________________________________
input (Data)                             (1, 224, 224, 3)                 0       
____________________________________________________________________________________________
conv0 (Convolution3d)                    (1, 112, 112, 32)               864      
____________________________________________________________________________________________
bn0_add_tensor (EltwiseAdd)              (1, 112, 112, 32)                0       
____________________________________________________________________________________________
bn0_relu (ReLU)                          (1, 112, 112, 32)                0       
____________________________________________________________________________________________
depth_wise_conv11 (ConvolutionDepthwise) (1, 112, 112, 32)               288      
____________________________________________________________________________________________
depth_wise_bn11 (EltwiseAdd)             (1, 112, 112, 32)                0       
____________________________________________________________________________________________
dw_relubn11 (ReLU)                       (1, 112, 112, 32)                0       
____________________________________________________________________________________________
contr_conv11 (Convolution3d)             (1, 112, 112, 16)               512      
____________________________________________________________________________________________
contr_bn11 (EltwiseAdd)                  (1, 112, 112, 16)                0       
____________________________________________________________________________________________
contr_relubn11 (ReLU)                    (1, 112, 112, 16)                0       
____________________________________________________________________________________________
exp_conv21 (Convolution3d)               (1, 112, 112, 96)               1536     
____________________________________________________________________________________________
exp_bn21 (EltwiseAdd)                    (1, 112, 112, 96)                0       
____________________________________________________________________________________________
bn0_relu_1 (ReLU)                        (1, 112, 112, 96)                0       
____________________________________________________________________________________________
depth_wise_conv21 (ConvolutionDepthwise) (1, 56, 56, 96)                 864      
____________________________________________________________________________________________
depth_wise_bn21 (EltwiseAdd)             (1, 56, 56, 96)                  0       
____________________________________________________________________________________________
dw_relubn21 (ReLU)                       (1, 56, 56, 96)                  0       
____________________________________________________________________________________________
contr_conv21 (Convolution3d)             (1, 56, 56, 24)                 2304     
____________________________________________________________________________________________
contr_bn21 (EltwiseAdd)                  (1, 56, 56, 24)                  0       
____________________________________________________________________________________________
contr_relubn21 (ReLU)                    (1, 56, 56, 24)                  0       
____________________________________________________________________________________________
exp_conv22 (Convolution3d)               (1, 56, 56, 144)                3456     
____________________________________________________________________________________________
exp_bn22 (EltwiseAdd)                    (1, 56, 56, 144)                 0       
____________________________________________________________________________________________
bn0_relu_2 (ReLU)                        (1, 56, 56, 144)                 0       
____________________________________________________________________________________________
depth_wise_conv22 (ConvolutionDepthwise) (1, 56, 56, 144)                1296     
____________________________________________________________________________________________
depth_wise_bn22 (EltwiseAdd)             (1, 56, 56, 144)                 0       
____________________________________________________________________________________________
dw_relubn22 (ReLU)                       (1, 56, 56, 144)                 0       
____________________________________________________________________________________________
contr_conv22 (Convolution3d)             (1, 56, 56, 24)                 3456     
____________________________________________________________________________________________
contr_bn22 (EltwiseAdd)                  (1, 56, 56, 24)                  0       
____________________________________________________________________________________________
contr_relubn22 (ReLU)                    (1, 56, 56, 24)                  0       
____________________________________________________________________________________________
add2_2 (EltwiseAdd)                      (1, 56, 56, 24)                  0       
____________________________________________________________________________________________
exp_conv31 (Convolution3d)               (1, 56, 56, 144)                3456     
____________________________________________________________________________________________
exp_bn31 (EltwiseAdd)                    (1, 56, 56, 144)                 0       
____________________________________________________________________________________________
bn0_relu_3 (ReLU)                        (1, 56, 56, 144)                 0       
____________________________________________________________________________________________
depth_wise_conv31 (ConvolutionDepthwise) (1, 28, 28, 144)                1296     
____________________________________________________________________________________________
depth_wise_bn31 (EltwiseAdd)             (1, 28, 28, 144)                 0       
____________________________________________________________________________________________
dw_relubn31 (ReLU)                       (1, 28, 28, 144)                 0       
____________________________________________________________________________________________
contr_conv31 (Convolution3d)             (1, 28, 28, 32)                 4608     
____________________________________________________________________________________________
contr_bn31 (EltwiseAdd)                  (1, 28, 28, 32)                  0       
____________________________________________________________________________________________
contr_relubn31 (ReLU)                    (1, 28, 28, 32)                  0       
____________________________________________________________________________________________
exp_conv32 (Convolution3d)               (1, 28, 28, 192)                6144     
____________________________________________________________________________________________
exp_bn32 (EltwiseAdd)                    (1, 28, 28, 192)                 0       
____________________________________________________________________________________________
bn0_relu_4 (ReLU)                        (1, 28, 28, 192)                 0       
____________________________________________________________________________________________
depth_wise_conv32 (ConvolutionDepthwise) (1, 28, 28, 192)                1728     
____________________________________________________________________________________________
depth_wise_bn32 (EltwiseAdd)             (1, 28, 28, 192)                 0       
____________________________________________________________________________________________
dw_relubn32 (ReLU)                       (1, 28, 28, 192)                 0       
____________________________________________________________________________________________
contr_conv32 (Convolution3d)             (1, 28, 28, 32)                 6144     
____________________________________________________________________________________________
contr_bn32 (EltwiseAdd)                  (1, 28, 28, 32)                  0       
____________________________________________________________________________________________
contr_relubn32 (ReLU)                    (1, 28, 28, 32)                  0       
____________________________________________________________________________________________
add3_2 (EltwiseAdd)                      (1, 28, 28, 32)                  0       
____________________________________________________________________________________________
exp_conv33 (Convolution3d)               (1, 28, 28, 192)                6144     
____________________________________________________________________________________________
exp_bn33 (EltwiseAdd)                    (1, 28, 28, 192)                 0       
____________________________________________________________________________________________
bn0_relu_5 (ReLU)                        (1, 28, 28, 192)                 0       
____________________________________________________________________________________________
depth_wise_conv33 (ConvolutionDepthwise) (1, 28, 28, 192)                1728     
____________________________________________________________________________________________
depth_wise_bn33 (EltwiseAdd)             (1, 28, 28, 192)                 0       
____________________________________________________________________________________________
dw_relubn33 (ReLU)                       (1, 28, 28, 192)                 0       
____________________________________________________________________________________________
contr_conv33 (Convolution3d)             (1, 28, 28, 32)                 6144     
____________________________________________________________________________________________
contr_bn33 (EltwiseAdd)                  (1, 28, 28, 32)                  0       
____________________________________________________________________________________________
contr_relubn33 (ReLU)                    (1, 28, 28, 32)                  0       
____________________________________________________________________________________________
add3_3 (EltwiseAdd)                      (1, 28, 28, 32)                  0       
____________________________________________________________________________________________
exp_conv41 (Convolution3d)               (1, 28, 28, 192)                6144     
____________________________________________________________________________________________
exp_bn41 (EltwiseAdd)                    (1, 28, 28, 192)                 0       
____________________________________________________________________________________________
bn0_relu_6 (ReLU)                        (1, 28, 28, 192)                 0       
____________________________________________________________________________________________
depth_wise_conv41 (ConvolutionDepthwise) (1, 14, 14, 192)                1728     
____________________________________________________________________________________________
depth_wise_bn41 (EltwiseAdd)             (1, 14, 14, 192)                 0       
____________________________________________________________________________________________
dw_relubn41 (ReLU)                       (1, 14, 14, 192)                 0       
____________________________________________________________________________________________
contr_conv41 (Convolution3d)             (1, 14, 14, 64)                12288     
____________________________________________________________________________________________
contr_bn41 (EltwiseAdd)                  (1, 14, 14, 64)                  0       
____________________________________________________________________________________________
contr_relubn41 (ReLU)                    (1, 14, 14, 64)                  0       
____________________________________________________________________________________________
exp_conv42 (Convolution3d)               (1, 14, 14, 384)               24576     
____________________________________________________________________________________________
exp_bn42 (EltwiseAdd)                    (1, 14, 14, 384)                 0       
____________________________________________________________________________________________
bn0_relu_7 (ReLU)                        (1, 14, 14, 384)                 0       
____________________________________________________________________________________________
depth_wise_conv42 (ConvolutionDepthwise) (1, 14, 14, 384)                3456     
____________________________________________________________________________________________
depth_wise_bn42 (EltwiseAdd)             (1, 14, 14, 384)                 0       
____________________________________________________________________________________________
dw_relubn42 (ReLU)                       (1, 14, 14, 384)                 0       
____________________________________________________________________________________________
contr_conv42 (Convolution3d)             (1, 14, 14, 64)                24576     
____________________________________________________________________________________________
contr_bn42 (EltwiseAdd)                  (1, 14, 14, 64)                  0       
____________________________________________________________________________________________
contr_relubn42 (ReLU)                    (1, 14, 14, 64)                  0       
____________________________________________________________________________________________
add4_2 (EltwiseAdd)                      (1, 14, 14, 64)                  0       
____________________________________________________________________________________________
exp_conv43 (Convolution3d)               (1, 14, 14, 384)               24576     
____________________________________________________________________________________________
exp_bn43 (EltwiseAdd)                    (1, 14, 14, 384)                 0       
____________________________________________________________________________________________
bn0_relu_8 (ReLU)                        (1, 14, 14, 384)                 0       
____________________________________________________________________________________________
depth_wise_conv43 (ConvolutionDepthwise) (1, 14, 14, 384)                3456     
____________________________________________________________________________________________
depth_wise_bn43 (EltwiseAdd)             (1, 14, 14, 384)                 0       
____________________________________________________________________________________________
dw_relubn43 (ReLU)                       (1, 14, 14, 384)                 0       
____________________________________________________________________________________________
contr_conv43 (Convolution3d)             (1, 14, 14, 64)                24576     
____________________________________________________________________________________________
contr_bn43 (EltwiseAdd)                  (1, 14, 14, 64)                  0       
____________________________________________________________________________________________
contr_relubn43 (ReLU)                    (1, 14, 14, 64)                  0       
____________________________________________________________________________________________
add4_3 (EltwiseAdd)                      (1, 14, 14, 64)                  0       
____________________________________________________________________________________________
exp_conv44 (Convolution3d)               (1, 14, 14, 384)               24576     
____________________________________________________________________________________________
exp_bn44 (EltwiseAdd)                    (1, 14, 14, 384)                 0       
____________________________________________________________________________________________
bn0_relu_9 (ReLU)                        (1, 14, 14, 384)                 0       
____________________________________________________________________________________________
depth_wise_conv44 (ConvolutionDepthwise) (1, 14, 14, 384)                3456     
____________________________________________________________________________________________
depth_wise_bn44 (EltwiseAdd)             (1, 14, 14, 384)                 0       
____________________________________________________________________________________________
dw_relubn44 (ReLU)                       (1, 14, 14, 384)                 0       
____________________________________________________________________________________________
contr_conv44 (Convolution3d)             (1, 14, 14, 64)                24576     
____________________________________________________________________________________________
contr_bn44 (EltwiseAdd)                  (1, 14, 14, 64)                  0       
____________________________________________________________________________________________
contr_relubn44 (ReLU)                    (1, 14, 14, 64)                  0       
____________________________________________________________________________________________
add4_4 (EltwiseAdd)                      (1, 14, 14, 64)                  0       
____________________________________________________________________________________________
exp_conv51 (Convolution3d)               (1, 14, 14, 384)               24576     
____________________________________________________________________________________________
exp_bn51 (EltwiseAdd)                    (1, 14, 14, 384)                 0       
____________________________________________________________________________________________
bn0_relu_10 (ReLU)                       (1, 14, 14, 384)                 0       
____________________________________________________________________________________________
depth_wise_conv51 (ConvolutionDepthwise) (1, 14, 14, 384)                3456     
____________________________________________________________________________________________
depth_wise_bn51 (EltwiseAdd)             (1, 14, 14, 384)                 0       
____________________________________________________________________________________________
dw_relubn51 (ReLU)                       (1, 14, 14, 384)                 0       
____________________________________________________________________________________________
contr_conv51 (Convolution3d)             (1, 14, 14, 96)                36864     
____________________________________________________________________________________________
contr_bn51 (EltwiseAdd)                  (1, 14, 14, 96)                  0       
____________________________________________________________________________________________
contr_relubn51 (ReLU)                    (1, 14, 14, 96)                  0       
____________________________________________________________________________________________
exp_conv52 (Convolution3d)               (1, 14, 14, 576)               55296     
____________________________________________________________________________________________
exp_bn52 (EltwiseAdd)                    (1, 14, 14, 576)                 0       
____________________________________________________________________________________________
bn0_relu_11 (ReLU)                       (1, 14, 14, 576)                 0       
____________________________________________________________________________________________
depth_wise_conv52 (ConvolutionDepthwise) (1, 14, 14, 576)                5184     
____________________________________________________________________________________________
depth_wise_bn52 (EltwiseAdd)             (1, 14, 14, 576)                 0       
____________________________________________________________________________________________
dw_relubn52 (ReLU)                       (1, 14, 14, 576)                 0       
____________________________________________________________________________________________
contr_conv52 (Convolution3d)             (1, 14, 14, 96)                55296     
____________________________________________________________________________________________
contr_bn52 (EltwiseAdd)                  (1, 14, 14, 96)                  0       
____________________________________________________________________________________________
contr_relubn52 (ReLU)                    (1, 14, 14, 96)                  0       
____________________________________________________________________________________________
add5_2 (EltwiseAdd)                      (1, 14, 14, 96)                  0       
____________________________________________________________________________________________
exp_conv53 (Convolution3d)               (1, 14, 14, 576)               55296     
____________________________________________________________________________________________
exp_bn53 (EltwiseAdd)                    (1, 14, 14, 576)                 0       
____________________________________________________________________________________________
bn0_relu_12 (ReLU)                       (1, 14, 14, 576)                 0       
____________________________________________________________________________________________
depth_wise_conv53 (ConvolutionDepthwise) (1, 14, 14, 576)                5184     
____________________________________________________________________________________________
depth_wise_bn53 (EltwiseAdd)             (1, 14, 14, 576)                 0       
____________________________________________________________________________________________
dw_relubn53 (ReLU)                       (1, 14, 14, 576)                 0       
____________________________________________________________________________________________
contr_conv53 (Convolution3d)             (1, 14, 14, 96)                55296     
____________________________________________________________________________________________
contr_bn53 (EltwiseAdd)                  (1, 14, 14, 96)                  0       
____________________________________________________________________________________________
contr_relubn53 (ReLU)                    (1, 14, 14, 96)                  0       
____________________________________________________________________________________________
add5_3 (EltwiseAdd)                      (1, 14, 14, 96)                  0       
____________________________________________________________________________________________
exp_conv61 (Convolution3d)               (1, 14, 14, 576)               55296     
____________________________________________________________________________________________
exp_bn61 (EltwiseAdd)                    (1, 14, 14, 576)                 0       
____________________________________________________________________________________________
bn0_relu_13 (ReLU)                       (1, 14, 14, 576)                 0       
____________________________________________________________________________________________
depth_wise_conv61 (ConvolutionDepthwise) (1, 7, 7, 576)                  5184     
____________________________________________________________________________________________
depth_wise_bn61 (EltwiseAdd)             (1, 7, 7, 576)                   0       
____________________________________________________________________________________________
dw_relubn61 (ReLU)                       (1, 7, 7, 576)                   0       
____________________________________________________________________________________________
contr_conv61 (Convolution3d)             (1, 7, 7, 160)                 92160     
____________________________________________________________________________________________
contr_bn61 (EltwiseAdd)                  (1, 7, 7, 160)                   0       
____________________________________________________________________________________________
contr_relubn61 (ReLU)                    (1, 7, 7, 160)                   0       
____________________________________________________________________________________________
exp_conv62 (Convolution3d)               (1, 7, 7, 960)                 153600    
____________________________________________________________________________________________
exp_bn62 (EltwiseAdd)                    (1, 7, 7, 960)                   0       
____________________________________________________________________________________________
bn0_relu_14 (ReLU)                       (1, 7, 7, 960)                   0       
____________________________________________________________________________________________
depth_wise_conv62 (ConvolutionDepthwise) (1, 7, 7, 960)                  8640     
____________________________________________________________________________________________
depth_wise_bn62 (EltwiseAdd)             (1, 7, 7, 960)                   0       
____________________________________________________________________________________________
dw_relubn62 (ReLU)                       (1, 7, 7, 960)                   0       
____________________________________________________________________________________________
contr_conv62 (Convolution3d)             (1, 7, 7, 160)                 153600    
____________________________________________________________________________________________
contr_bn62 (EltwiseAdd)                  (1, 7, 7, 160)                   0       
____________________________________________________________________________________________
contr_relubn62 (ReLU)                    (1, 7, 7, 160)                   0       
____________________________________________________________________________________________
add6_2 (EltwiseAdd)                      (1, 7, 7, 160)                   0       
____________________________________________________________________________________________
exp_conv63 (Convolution3d)               (1, 7, 7, 960)                 153600    
____________________________________________________________________________________________
exp_bn63 (EltwiseAdd)                    (1, 7, 7, 960)                   0       
____________________________________________________________________________________________
bn0_relu_15 (ReLU)                       (1, 7, 7, 960)                   0       
____________________________________________________________________________________________
depth_wise_conv63 (ConvolutionDepthwise) (1, 7, 7, 960)                  8640     
____________________________________________________________________________________________
depth_wise_bn63 (EltwiseAdd)             (1, 7, 7, 960)                   0       
____________________________________________________________________________________________
dw_relubn63 (ReLU)                       (1, 7, 7, 960)                   0       
____________________________________________________________________________________________
contr_conv63 (Convolution3d)             (1, 7, 7, 160)                 153600    
____________________________________________________________________________________________
contr_bn63 (EltwiseAdd)                  (1, 7, 7, 160)                   0       
____________________________________________________________________________________________
contr_relubn63 (ReLU)                    (1, 7, 7, 160)                   0       
____________________________________________________________________________________________
add6_3 (EltwiseAdd)                      (1, 7, 7, 160)                   0       
____________________________________________________________________________________________
exp_conv71 (Convolution3d)               (1, 7, 7, 960)                 153600    
____________________________________________________________________________________________
exp_bn71 (EltwiseAdd)                    (1, 7, 7, 960)                   0       
____________________________________________________________________________________________
bn0_relu_16 (ReLU)                       (1, 7, 7, 960)                   0       
____________________________________________________________________________________________
depth_wise_conv71 (ConvolutionDepthwise) (1, 7, 7, 960)                  8640     
____________________________________________________________________________________________
depth_wise_bn71 (EltwiseAdd)             (1, 7, 7, 960)                   0       
____________________________________________________________________________________________
dw_relubn71 (ReLU)                       (1, 7, 7, 960)                   0       
____________________________________________________________________________________________
contr_conv71 (Convolution3d)             (1, 7, 7, 320)                 307200    
____________________________________________________________________________________________
contr_bn71 (EltwiseAdd)                  (1, 7, 7, 320)                   0       
____________________________________________________________________________________________
contr_relubn71 (ReLU)                    (1, 7, 7, 320)                   0       
____________________________________________________________________________________________
conv8 (Convolution3d)                    (1, 7, 7, 1280)                409600    
____________________________________________________________________________________________
bn8_add_tensor (EltwiseAdd)              (1, 7, 7, 1280)                  0       
____________________________________________________________________________________________
 bn8_relu (ReLU)                         (1, 7, 7, 1280)                  0       
____________________________________________________________________________________________
avg_pool (AveragePooling)                (1, 1, 1, 1280)                  0       
____________________________________________________________________________________________
conv10 (Convolution3d)                   (1, 1, 1, 1000)               1280000    
____________________________________________________________________________________________
bn10_add_tensor (EltwiseAdd)             (1, 1, 1, 1000)                  0       
____________________________________________________________________________________________
bn10_rleu (ReLU)                         (1, 1, 1, 1000)                  0       
____________________________________________________________________________________________
======================================================
      Tiling operators of the network...
======================================================
Tiling  bn8_relu (ReLU).
  Tiled Tensor bn8_add_tensor/output0:
    original tensor shape: (1, 7, 7, 1280)
    tile shape (1, 16384), number of tiles: 4
…
