…
Adding  concat_s1_chkpt (Concat).
Adding  concat_s2 (Concat).
Adding  concat_s3 (Concat).
Adding  concat_all (Concat).
Adding data_124 (Data).
Adding  final_pt_conv (Convolution3d).
======================================================
      Summary of the network.
======================================================
____________________________________________________________________________________________
Layer (type)                             Output shape                 Parameters  
____________________________________________________________________________________________
data_124 (Data)                          (128, 1, 1, 832)                 0       
____________________________________________________________________________________________
data_123 (Data)                          (1, 32, 32, 64)                  0       
____________________________________________________________________________________________
data_122 (Data)                          (64, 1, 1, 224)                  0       
____________________________________________________________________________________________
data_121 (Data)                          (1, 32, 32, 224)                 0       
____________________________________________________________________________________________
data_120 (Data)                          (1, 3, 3, 224)                   0       
____________________________________________________________________________________________
data_119 (Data)                          (1, 32, 32, 64)                  0       
____________________________________________________________________________________________
data_118 (Data)                          (64, 1, 1, 224)                  0       
____________________________________________________________________________________________
data_117 (Data)                          (1, 32, 32, 224)                 0       
____________________________________________________________________________________________
data_116 (Data)                          (1, 5, 5, 224)                   0       
____________________________________________________________________________________________
data_115 (Data)                          (1, 32, 32, 64)                  0       
____________________________________________________________________________________________
data_114 (Data)                          (64, 1, 1, 224)                  0       
____________________________________________________________________________________________
data_113 (Data)                          (1, 32, 32, 224)                 0       
____________________________________________________________________________________________
data_112 (Data)                          (1, 3, 3, 224)                   0       
____________________________________________________________________________________________
data_111 (Data)                          (1, 32, 32, 64)                  0       
____________________________________________________________________________________________
data_110 (Data)                          (64, 1, 1, 224)                  0       
____________________________________________________________________________________________
data_109 (Data)                          (1, 32, 32, 224)                 0       
____________________________________________________________________________________________
data_108 (Data)                          (1, 5, 5, 224)                   0       
____________________________________________________________________________________________
data_107 (Data)                          (1, 32, 32, 64)                  0       
____________________________________________________________________________________________
data_106 (Data)                          (64, 1, 1, 224)                  0       
____________________________________________________________________________________________
data_105 (Data)                          (1, 32, 32, 224)                 0       
____________________________________________________________________________________________
data_104 (Data)                          (1, 3, 3, 224)                   0       
____________________________________________________________________________________________
data_103 (Data)                          (1, 32, 32, 64)                  0       
____________________________________________________________________________________________
data_102 (Data)                          (64, 1, 1, 224)                  0       
____________________________________________________________________________________________
data_101 (Data)                          (1, 32, 32, 224)                 0       
____________________________________________________________________________________________
data_100 (Data)                          (1, 5, 5, 224)                   0       
____________________________________________________________________________________________
data_99 (Data)                           (1, 32, 32, 448)                 0       
____________________________________________________________________________________________
data_98 (Data)                           (448, 1, 1, 96)                  0       
____________________________________________________________________________________________
data_97 (Data)                           (1, 32, 32, 96)                  0       
____________________________________________________________________________________________
data_96 (Data)                           (96, 1, 1, 384)                  0       
____________________________________________________________________________________________
data_95 (Data)                           (1, 32, 32, 384)                 0       
____________________________________________________________________________________________
data_94 (Data)                           (1, 5, 5, 384)                   0       
____________________________________________________________________________________________
data_93 (Data)                           (1, 32, 32, 384)                 0       
____________________________________________________________________________________________
data_92 (Data)                           (384, 1, 1, 96)                  0       
____________________________________________________________________________________________
data_91 (Data)                           (1, 32, 32, 96)                  0       
____________________________________________________________________________________________
data_90 (Data)                           (96, 1, 1, 384)                  0       
____________________________________________________________________________________________
data_89 (Data)                           (1, 32, 32, 384)                 0       
____________________________________________________________________________________________
data_88 (Data)                           (1, 5, 5, 384)                   0       
____________________________________________________________________________________________
data_87 (Data)                           (1, 32, 32, 384)                 0       
____________________________________________________________________________________________
data_86 (Data)                           (384, 1, 1, 96)                  0       
____________________________________________________________________________________________
data_85 (Data)                           (1, 32, 32, 96)                  0       
____________________________________________________________________________________________
data_84 (Data)                           (96, 1, 1, 384)                  0       
____________________________________________________________________________________________
data_83 (Data)                           (1, 32, 32, 384)                 0       
____________________________________________________________________________________________
data_82 (Data)                           (1, 5, 5, 384)                   0       
____________________________________________________________________________________________
data_81 (Data)                           (1, 32, 32, 384)                 0       
____________________________________________________________________________________________
data_80 (Data)                           (384, 1, 1, 192)                 0       
____________________________________________________________________________________________
data_79 (Data)                           (1, 32, 32, 192)                 0       
____________________________________________________________________________________________
data_78 (Data)                           (192, 1, 1, 960)                 0       
____________________________________________________________________________________________
data_77 (Data)                           (1, 32, 32, 960)                 0       
____________________________________________________________________________________________
data_76 (Data)                           (1, 3, 3, 960)                   0       
____________________________________________________________________________________________
data_75 (Data)                           (1, 32, 32, 960)                 0       
____________________________________________________________________________________________
data_74 (Data)                           (960, 1, 1, 160)                 0       
____________________________________________________________________________________________
data_73 (Data)                           (1, 32, 32, 160)                 0       
____________________________________________________________________________________________
data_72 (Data)                           (160, 1, 1, 640)                 0       
____________________________________________________________________________________________
data_71 (Data)                           (1, 32, 32, 640)                 0       
____________________________________________________________________________________________
data_70 (Data)                           (1, 3, 3, 640)                   0       
____________________________________________________________________________________________
data_69 (Data)                           (1, 32, 32, 640)                 0       
____________________________________________________________________________________________
data_68 (Data)                           (640, 1, 1, 160)                 0       
____________________________________________________________________________________________
data_67 (Data)                           (1, 32, 32, 160)                 0       
____________________________________________________________________________________________
data_66 (Data)                           (160, 1, 1, 768)                 0       
____________________________________________________________________________________________
data_65 (Data)                           (1, 32, 32, 768)                 0       
____________________________________________________________________________________________
data_64 (Data)                           (1, 3, 3, 768)                   0       
____________________________________________________________________________________________
data_63 (Data)                           (1, 32, 32, 768)                 0       
____________________________________________________________________________________________
data_62 (Data)                           (768, 1, 1, 128)                 0       
____________________________________________________________________________________________
data_61 (Data)                           (1, 32, 32, 128)                 0       
____________________________________________________________________________________________
data_60 (Data)                           (128, 1, 1, 384)                 0       
____________________________________________________________________________________________
data_59 (Data)                           (1, 32, 32, 384)                 0       
____________________________________________________________________________________________
data_58 (Data)                           (1, 3, 3, 384)                   0       
____________________________________________________________________________________________
data_57 (Data)                           (1, 32, 32, 384)                 0       
____________________________________________________________________________________________
data_56 (Data)                           (384, 1, 1, 128)                 0       
____________________________________________________________________________________________
data_55 (Data)                           (1, 32, 32, 128)                 0       
____________________________________________________________________________________________
data_54 (Data)                           (128, 1, 1, 384)                 0       
____________________________________________________________________________________________
data_53 (Data)                           (1, 32, 32, 384)                 0       
____________________________________________________________________________________________
data_52 (Data)                           (1, 3, 3, 384)                   0       
____________________________________________________________________________________________
data_51 (Data)                           (1, 32, 32, 384)                 0       
____________________________________________________________________________________________
data_50 (Data)                           (384, 1, 1, 128)                 0       
____________________________________________________________________________________________
data_49 (Data)                           (1, 32, 32, 128)                 0       
____________________________________________________________________________________________
data_48 (Data)                           (128, 1, 1, 384)                 0       
____________________________________________________________________________________________
data_47 (Data)                           (1, 32, 32, 384)                 0       
____________________________________________________________________________________________
data_46 (Data)                           (1, 3, 3, 384)                   0       
____________________________________________________________________________________________
data_45 (Data)                           (1, 32, 32, 384)                 0       
____________________________________________________________________________________________
data_44 (Data)                           (384, 1, 1, 128)                 0       
____________________________________________________________________________________________
data_43 (Data)                           (1, 32, 32, 128)                 0       
____________________________________________________________________________________________
data_42 (Data)                           (128, 1, 1, 384)                 0       
____________________________________________________________________________________________
data_41 (Data)                           (1, 32, 32, 384)                 0       
____________________________________________________________________________________________
data_40 (Data)                           (1, 5, 5, 384)                   0       
____________________________________________________________________________________________
data_39 (Data)                           (1, 64, 64, 384)                 0       
____________________________________________________________________________________________
data_38 (Data)                           (384, 1, 1, 64)                  0       
____________________________________________________________________________________________
data_37 (Data)                           (1, 64, 64, 64)                  0       
____________________________________________________________________________________________
data_36 (Data)                           (64, 1, 1, 192)                  0       
____________________________________________________________________________________________
data_35 (Data)                           (1, 64, 64, 192)                 0       
____________________________________________________________________________________________
data_34 (Data)                           (1, 3, 3, 192)                   0       
____________________________________________________________________________________________
data_33 (Data)                           (1, 64, 64, 192)                 0       
____________________________________________________________________________________________
data_32 (Data)                           (192, 1, 1, 64)                  0       
____________________________________________________________________________________________
data_31 (Data)                           (1, 64, 64, 64)                  0       
____________________________________________________________________________________________
data_30 (Data)                           (64, 1, 1, 128)                  0       
____________________________________________________________________________________________
data_29 (Data)                           (1, 64, 64, 128)                 0       
____________________________________________________________________________________________
data_28 (Data)                           (1, 3, 3, 128)                   0       
____________________________________________________________________________________________
data_27 (Data)                           (1, 64, 64, 128)                 0       
____________________________________________________________________________________________
data_26 (Data)                           (128, 1, 1, 64)                  0       
____________________________________________________________________________________________
data_25 (Data)                           (1, 64, 64, 64)                  0       
____________________________________________________________________________________________
data_24 (Data)                           (64, 1, 1, 192)                  0       
____________________________________________________________________________________________
data_23 (Data)                           (1, 64, 64, 192)                 0       
____________________________________________________________________________________________
data_22 (Data)                           (1, 3, 3, 192)                   0       
____________________________________________________________________________________________
data_21 (Data)                           (1, 64, 64, 192)                 0       
____________________________________________________________________________________________
data_20 (Data)                           (192, 1, 1, 64)                  0       
____________________________________________________________________________________________
data_19 (Data)                           (1, 64, 64, 64)                  0       
____________________________________________________________________________________________
data_18 (Data)                           (64, 1, 1, 160)                  0       
____________________________________________________________________________________________
data_17 (Data)                           (1, 64, 64, 160)                 0       
____________________________________________________________________________________________
data_16 (Data)                           (1, 5, 5, 160)                   0       
____________________________________________________________________________________________
data_15 (Data)                           (1, 128, 128, 160)               0       
____________________________________________________________________________________________
data_14 (Data)                           (160, 1, 1, 32)                  0       
____________________________________________________________________________________________
data_13 (Data)                           (1, 128, 128, 32)                0       
____________________________________________________________________________________________
data_12 (Data)                           (32, 1, 1, 64)                   0       
____________________________________________________________________________________________
data_11 (Data)                           (1, 128, 128, 64)                0       
____________________________________________________________________________________________
data_10 (Data)                           (1, 3, 3, 64)                    0       
____________________________________________________________________________________________
data_9 (Data)                            (1, 128, 128, 64)                0       
____________________________________________________________________________________________
data_8 (Data)                            (64, 1, 1, 32)                   0       
____________________________________________________________________________________________
data_7 (Data)                            (1, 128, 128, 32)                0       
____________________________________________________________________________________________
data_6 (Data)                            (32, 1, 1, 96)                   0       
____________________________________________________________________________________________
data_5 (Data)                            (1, 128, 128, 96)                0       
____________________________________________________________________________________________
data_4 (Data)                            (1, 3, 3, 96)                    0       
____________________________________________________________________________________________
data_3 (Data)                            (1, 256, 256, 96)                0       
____________________________________________________________________________________________
data_2 (Data)                            (96, 1, 1, 32)                   0       
____________________________________________________________________________________________
data_1 (Data)                            (1, 256, 256, 32)                0       
____________________________________________________________________________________________
data (Data)                              (32, 3, 3, 3)                    0       
____________________________________________________________________________________________
input (Data)                             (1, 512, 512, 3)                 0       
____________________________________________________________________________________________
conv0 (Convolution3d)                    (1, 256, 256, 32)               864      
____________________________________________________________________________________________
bn0_add_tensor (EltwiseAdd)              (1, 256, 256, 32)                0       
____________________________________________________________________________________________
bn0_relu (ReLU)                          (1, 256, 256, 32)                0       
____________________________________________________________________________________________
exp_conv0a (Convolution3d)               (1, 256, 256, 96)               3072     
____________________________________________________________________________________________
exp_bn0a (EltwiseAdd)                    (1, 256, 256, 96)                0       
____________________________________________________________________________________________
bn0_relu_1 (ReLU)                        (1, 256, 256, 96)                0       
____________________________________________________________________________________________
depth_wise_conv0a (ConvolutionDepthwise) (1, 128, 128, 96)               864      
____________________________________________________________________________________________
depth_wise_bn0a (EltwiseAdd)             (1, 128, 128, 96)                0       
____________________________________________________________________________________________
dw_relubn0a (ReLU)                       (1, 128, 128, 96)                0       
____________________________________________________________________________________________
contr_conv0a (Convolution3d)             (1, 128, 128, 32)               3072     
____________________________________________________________________________________________
contr_bn0a (EltwiseAdd)                  (1, 128, 128, 32)                0       
____________________________________________________________________________________________
contr_relubn0a (ReLU)                    (1, 128, 128, 32)                0       
____________________________________________________________________________________________
exp_conv1a (Convolution3d)               (1, 128, 128, 64)               2048     
____________________________________________________________________________________________
exp_bn1a (EltwiseAdd)                    (1, 128, 128, 64)                0       
____________________________________________________________________________________________
bn0_relu_2 (ReLU)                        (1, 128, 128, 64)                0       
____________________________________________________________________________________________
depth_wise_conv1a (ConvolutionDepthwise) (1, 128, 128, 64)               576      
____________________________________________________________________________________________
depth_wise_bn1a (EltwiseAdd)             (1, 128, 128, 64)                0       
____________________________________________________________________________________________
dw_relubn1a (ReLU)                       (1, 128, 128, 64)                0       
____________________________________________________________________________________________
contr_conv1a (Convolution3d)             (1, 128, 128, 32)               2048     
____________________________________________________________________________________________
contr_bn1a (EltwiseAdd)                  (1, 128, 128, 32)                0       
____________________________________________________________________________________________
contr_relubn1a (ReLU)                    (1, 128, 128, 32)                0       
____________________________________________________________________________________________
add1_a (EltwiseAdd)                      (1, 128, 128, 32)                0       
____________________________________________________________________________________________
exp_conv2a (Convolution3d)               (1, 128, 128, 160)              5120     
____________________________________________________________________________________________
exp_bn2a (EltwiseAdd)                    (1, 128, 128, 160)               0       
____________________________________________________________________________________________
bn0_relu_3 (ReLU)                        (1, 128, 128, 160)               0       
____________________________________________________________________________________________
depth_wise_conv2a (ConvolutionDepthwise) (1, 64, 64, 160)                4000     
____________________________________________________________________________________________
depth_wise_bn2a (EltwiseAdd)             (1, 64, 64, 160)                 0       
____________________________________________________________________________________________
dw_relubn2a (ReLU)                       (1, 64, 64, 160)                 0       
____________________________________________________________________________________________
contr_conv2a (Convolution3d)             (1, 64, 64, 64)                10240     
____________________________________________________________________________________________
contr_bn2a (EltwiseAdd)                  (1, 64, 64, 64)                  0       
____________________________________________________________________________________________
contr_relubn2a (ReLU)                    (1, 64, 64, 64)                  0       
____________________________________________________________________________________________
exp_conv3a (Convolution3d)               (1, 64, 64, 192)               12288     
____________________________________________________________________________________________
exp_bn3a (EltwiseAdd)                    (1, 64, 64, 192)                 0       
____________________________________________________________________________________________
bn0_relu_4 (ReLU)                        (1, 64, 64, 192)                 0       
____________________________________________________________________________________________
depth_wise_conv3a (ConvolutionDepthwise) (1, 64, 64, 192)                1728     
____________________________________________________________________________________________
depth_wise_bn3a (EltwiseAdd)             (1, 64, 64, 192)                 0       
____________________________________________________________________________________________
dw_relubn3a (ReLU)                       (1, 64, 64, 192)                 0       
____________________________________________________________________________________________
contr_conv3a (Convolution3d)             (1, 64, 64, 64)                12288     
____________________________________________________________________________________________
contr_bn3a (EltwiseAdd)                  (1, 64, 64, 64)                  0       
____________________________________________________________________________________________
contr_relubn3a (ReLU)                    (1, 64, 64, 64)                  0       
____________________________________________________________________________________________
add3_a_chkpt (EltwiseAdd)                (1, 64, 64, 64)                  0       
____________________________________________________________________________________________
exp_conv4a (Convolution3d)               (1, 64, 64, 128)                8192     
____________________________________________________________________________________________
exp_bn4a (EltwiseAdd)                    (1, 64, 64, 128)                 0       
____________________________________________________________________________________________
bn0_relu_5 (ReLU)                        (1, 64, 64, 128)                 0       
____________________________________________________________________________________________
depth_wise_conv4a (ConvolutionDepthwise) (1, 64, 64, 128)                1152     
____________________________________________________________________________________________
depth_wise_bn4a (EltwiseAdd)             (1, 64, 64, 128)                 0       
____________________________________________________________________________________________
dw_relubn4a (ReLU)                       (1, 64, 64, 128)                 0       
____________________________________________________________________________________________
contr_conv4a (Convolution3d)             (1, 64, 64, 64)                 8192     
____________________________________________________________________________________________
contr_bn4a (EltwiseAdd)                  (1, 64, 64, 64)                  0       
____________________________________________________________________________________________
contr_relubn4a (ReLU)                    (1, 64, 64, 64)                  0       
____________________________________________________________________________________________
add4_a (EltwiseAdd)                      (1, 64, 64, 64)                  0       
____________________________________________________________________________________________
exp_conv5a (Convolution3d)               (1, 64, 64, 192)               12288     
____________________________________________________________________________________________
exp_bn5a (EltwiseAdd)                    (1, 64, 64, 192)                 0       
____________________________________________________________________________________________
bn0_relu_6 (ReLU)                        (1, 64, 64, 192)                 0       
____________________________________________________________________________________________
depth_wise_conv5a (ConvolutionDepthwise) (1, 64, 64, 192)                1728     
____________________________________________________________________________________________
depth_wise_bn5a (EltwiseAdd)             (1, 64, 64, 192)                 0       
____________________________________________________________________________________________
dw_relubn5a (ReLU)                       (1, 64, 64, 192)                 0       
____________________________________________________________________________________________
contr_conv5a (Convolution3d)             (1, 64, 64, 64)                12288     
____________________________________________________________________________________________
contr_bn5a (EltwiseAdd)                  (1, 64, 64, 64)                  0       
____________________________________________________________________________________________
contr_relubn5a (ReLU)                    (1, 64, 64, 64)                  0       
____________________________________________________________________________________________
add5_a (EltwiseAdd)                      (1, 64, 64, 64)                  0       
____________________________________________________________________________________________
exp_conv6a (Convolution3d)               (1, 64, 64, 384)               24576     
____________________________________________________________________________________________
exp_bn6a (EltwiseAdd)                    (1, 64, 64, 384)                 0       
____________________________________________________________________________________________
bn0_relu_7 (ReLU)                        (1, 64, 64, 384)                 0       
____________________________________________________________________________________________
depth_wise_conv6a (ConvolutionDepthwise) (1, 32, 32, 384)                9600     
____________________________________________________________________________________________
depth_wise_bn6a (EltwiseAdd)             (1, 32, 32, 384)                 0       
____________________________________________________________________________________________
dw_relubn6a (ReLU)                       (1, 32, 32, 384)                 0       
____________________________________________________________________________________________
contr_conv6a (Convolution3d)             (1, 32, 32, 128)               49152     
____________________________________________________________________________________________
contr_bn6a (EltwiseAdd)                  (1, 32, 32, 128)                 0       
____________________________________________________________________________________________
contr_relubn6a (ReLU)                    (1, 32, 32, 128)                 0       
____________________________________________________________________________________________
exp_conv7a (Convolution3d)               (1, 32, 32, 384)               49152     
____________________________________________________________________________________________
exp_bn7a (EltwiseAdd)                    (1, 32, 32, 384)                 0       
____________________________________________________________________________________________
bn0_relu_8 (ReLU)                        (1, 32, 32, 384)                 0       
____________________________________________________________________________________________
depth_wise_conv7a (ConvolutionDepthwise) (1, 32, 32, 384)                3456     
____________________________________________________________________________________________
depth_wise_bn7a (EltwiseAdd)             (1, 32, 32, 384)                 0       
____________________________________________________________________________________________
dw_relubn7a (ReLU)                       (1, 32, 32, 384)                 0       
____________________________________________________________________________________________
contr_conv7a (Convolution3d)             (1, 32, 32, 128)               49152     
____________________________________________________________________________________________
contr_bn7a (EltwiseAdd)                  (1, 32, 32, 128)                 0       
____________________________________________________________________________________________
contr_relubn7a (ReLU)                    (1, 32, 32, 128)                 0       
____________________________________________________________________________________________
add7_a_chkpt (EltwiseAdd)                (1, 32, 32, 128)                 0       
____________________________________________________________________________________________
exp_conv8a (Convolution3d)               (1, 32, 32, 384)               49152     
____________________________________________________________________________________________
exp_bn8a (EltwiseAdd)                    (1, 32, 32, 384)                 0       
____________________________________________________________________________________________
bn0_relu_9 (ReLU)                        (1, 32, 32, 384)                 0       
____________________________________________________________________________________________
depth_wise_conv8a (ConvolutionDepthwise) (1, 32, 32, 384)                3456     
____________________________________________________________________________________________
depth_wise_bn8a (EltwiseAdd)             (1, 32, 32, 384)                 0       
____________________________________________________________________________________________
dw_relubn8a (ReLU)                       (1, 32, 32, 384)                 0       
____________________________________________________________________________________________
contr_conv8a (Convolution3d)             (1, 32, 32, 128)               49152     
____________________________________________________________________________________________
contr_bn8a (EltwiseAdd)                  (1, 32, 32, 128)                 0       
____________________________________________________________________________________________
contr_relubn8a (ReLU)                    (1, 32, 32, 128)                 0       
____________________________________________________________________________________________
add8_a (EltwiseAdd)                      (1, 32, 32, 128)                 0       
____________________________________________________________________________________________
exp_conv9a (Convolution3d)               (1, 32, 32, 384)               49152     
____________________________________________________________________________________________
exp_bn9a (EltwiseAdd)                    (1, 32, 32, 384)                 0       
____________________________________________________________________________________________
bn0_relu_10 (ReLU)                       (1, 32, 32, 384)                 0       
____________________________________________________________________________________________
depth_wise_conv9a (ConvolutionDepthwise) (1, 32, 32, 384)                3456     
____________________________________________________________________________________________
depth_wise_bn9a (EltwiseAdd)             (1, 32, 32, 384)                 0       
____________________________________________________________________________________________
dw_relubn9a (ReLU)                       (1, 32, 32, 384)                 0       
____________________________________________________________________________________________
contr_conv9a (Convolution3d)             (1, 32, 32, 128)               49152     
____________________________________________________________________________________________
contr_bn9a (EltwiseAdd)                  (1, 32, 32, 128)                 0       
____________________________________________________________________________________________
contr_relubn9a (ReLU)                    (1, 32, 32, 128)                 0       
____________________________________________________________________________________________
add9_a (EltwiseAdd)                      (1, 32, 32, 128)                 0       
____________________________________________________________________________________________
exp_conv10a (Convolution3d)              (1, 32, 32, 768)               98304     
____________________________________________________________________________________________
exp_bn10a (EltwiseAdd)                   (1, 32, 32, 768)                 0       
____________________________________________________________________________________________
bn0_relu_11 (ReLU)                       (1, 32, 32, 768)                 0       
____________________________________________________________________________________________
depth_wise_conv10a (ConvolutionDepthwise) (1, 32, 32, 768)                6912     
____________________________________________________________________________________________
depth_wise_bn10a (EltwiseAdd)            (1, 32, 32, 768)                 0       
____________________________________________________________________________________________
dw_relubn10a (ReLU)                      (1, 32, 32, 768)                 0       
____________________________________________________________________________________________
contr_conv10a (Convolution3d)            (1, 32, 32, 160)               122880    
____________________________________________________________________________________________
contr_bn10a (EltwiseAdd)                 (1, 32, 32, 160)                 0       
____________________________________________________________________________________________
contr_relubn10a (ReLU)                   (1, 32, 32, 160)                 0       
____________________________________________________________________________________________
exp_conv11a (Convolution3d)              (1, 32, 32, 640)               102400    
____________________________________________________________________________________________
exp_bn11a (EltwiseAdd)                   (1, 32, 32, 640)                 0       
____________________________________________________________________________________________
bn0_relu_12 (ReLU)                       (1, 32, 32, 640)                 0       
____________________________________________________________________________________________
depth_wise_conv11a (ConvolutionDepthwise) (1, 32, 32, 640)                5760     
____________________________________________________________________________________________
depth_wise_bn11a (EltwiseAdd)            (1, 32, 32, 640)                 0       
____________________________________________________________________________________________
dw_relubn11a (ReLU)                      (1, 32, 32, 640)                 0       
____________________________________________________________________________________________
contr_conv11a (Convolution3d)            (1, 32, 32, 160)               102400    
____________________________________________________________________________________________
contr_bn11a (EltwiseAdd)                 (1, 32, 32, 160)                 0       
____________________________________________________________________________________________
contr_relubn11a (ReLU)                   (1, 32, 32, 160)                 0       
____________________________________________________________________________________________
add11_a_chkpt (EltwiseAdd)               (1, 32, 32, 160)                 0       
____________________________________________________________________________________________
exp_conv12a (Convolution3d)              (1, 32, 32, 960)               153600    
____________________________________________________________________________________________
exp_bn12a (EltwiseAdd)                   (1, 32, 32, 960)                 0       
____________________________________________________________________________________________
bn0_relu_13 (ReLU)                       (1, 32, 32, 960)                 0       
____________________________________________________________________________________________
depth_wise_conv12a (ConvolutionDepthwise) (1, 32, 32, 960)                8640     
____________________________________________________________________________________________
depth_wise_bn12a (EltwiseAdd)            (1, 32, 32, 960)                 0       
____________________________________________________________________________________________
dw_relubn12a (ReLU)                      (1, 32, 32, 960)                 0       
____________________________________________________________________________________________
contr_conv12a (Convolution3d)            (1, 32, 32, 192)               184320    
____________________________________________________________________________________________
contr_bn12a (EltwiseAdd)                 (1, 32, 32, 192)                 0       
____________________________________________________________________________________________
contr_relubn12a (ReLU)                   (1, 32, 32, 192)                 0       
____________________________________________________________________________________________
exp_conv13a (Convolution3d)              (1, 32, 32, 384)               73728     
____________________________________________________________________________________________
exp_bn13a (EltwiseAdd)                   (1, 32, 32, 384)                 0       
____________________________________________________________________________________________
bn0_relu_14 (ReLU)                       (1, 32, 32, 384)                 0       
____________________________________________________________________________________________
depth_wise_conv13a (ConvolutionDepthwise) (1, 32, 32, 384)                9600     
____________________________________________________________________________________________
depth_wise_bn13a (EltwiseAdd)            (1, 32, 32, 384)                 0       
____________________________________________________________________________________________
dw_relubn13a (ReLU)                      (1, 32, 32, 384)                 0       
____________________________________________________________________________________________
contr_conv13a (Convolution3d)            (1, 32, 32, 96)                36864     
____________________________________________________________________________________________
contr_bn13a (EltwiseAdd)                 (1, 32, 32, 96)                  0       
____________________________________________________________________________________________
contr_relubn13a (ReLU)                   (1, 32, 32, 96)                  0       
____________________________________________________________________________________________
exp_conv14a (Convolution3d)              (1, 32, 32, 384)               36864     
____________________________________________________________________________________________
exp_bn14a (EltwiseAdd)                   (1, 32, 32, 384)                 0       
____________________________________________________________________________________________
bn0_relu_15 (ReLU)                       (1, 32, 32, 384)                 0       
____________________________________________________________________________________________
depth_wise_conv14a (ConvolutionDepthwise) (1, 32, 32, 384)                9600     
____________________________________________________________________________________________
depth_wise_bn14a (EltwiseAdd)            (1, 32, 32, 384)                 0       
____________________________________________________________________________________________
dw_relubn14a (ReLU)                      (1, 32, 32, 384)                 0       
____________________________________________________________________________________________
contr_conv14a (Convolution3d)            (1, 32, 32, 96)                36864     
____________________________________________________________________________________________
contr_bn14a (EltwiseAdd)                 (1, 32, 32, 96)                  0       
____________________________________________________________________________________________
contr_relubn14a (ReLU)                   (1, 32, 32, 96)                  0       
____________________________________________________________________________________________
add14_a (EltwiseAdd)                     (1, 32, 32, 96)                  0       
____________________________________________________________________________________________
exp_conv15a (Convolution3d)              (1, 32, 32, 384)               36864     
____________________________________________________________________________________________
exp_bn15a (EltwiseAdd)                   (1, 32, 32, 384)                 0       
____________________________________________________________________________________________
bn0_relu_16 (ReLU)                       (1, 32, 32, 384)                 0       
____________________________________________________________________________________________
depth_wise_conv15a (ConvolutionDepthwise) (1, 32, 32, 384)                9600     
____________________________________________________________________________________________
depth_wise_bn15a (EltwiseAdd)            (1, 32, 32, 384)                 0       
____________________________________________________________________________________________
dw_relubn15a (ReLU)                      (1, 32, 32, 384)                 0       
____________________________________________________________________________________________
contr_conv15a (Convolution3d)            (1, 32, 32, 96)                36864     
____________________________________________________________________________________________
contr_bn15a (EltwiseAdd)                 (1, 32, 32, 96)                  0       
____________________________________________________________________________________________
contr_relubn15a (ReLU)                   (1, 32, 32, 96)                  0       
____________________________________________________________________________________________
add15_a_chkpt (EltwiseAdd)               (1, 32, 32, 96)                  0       
____________________________________________________________________________________________
conv8 (Convolution3d)                    (1, 32, 32, 448)               43008     
____________________________________________________________________________________________
bn8_add_tensor (EltwiseAdd)              (1, 32, 32, 448)                 0       
____________________________________________________________________________________________
 bn8_relu (ReLU)                         (1, 32, 32, 448)                 0       
____________________________________________________________________________________________
avg_pool_3 (AveragePooling)              (1, 32, 32, 448)                 0       
____________________________________________________________________________________________
split_3 (Split)                          (1, 32, 32, 224)                 0       
                                         (1, 32, 32, 224)                         
____________________________________________________________________________________________
depthwise_conv_5 (ConvolutionDepthwise)  (1, 32, 32, 224)                2016     
____________________________________________________________________________________________
 dw_add_s3b (EltwiseAdd)                 (1, 32, 32, 224)                 0       
____________________________________________________________________________________________
 s3b_dw_relu (ReLU)                      (1, 32, 32, 224)                 0       
____________________________________________________________________________________________
conv_5 (Convolution3d)                   (1, 32, 32, 64)                14336     
____________________________________________________________________________________________
 s3b_pt_bias (EltwiseAdd)                (1, 32, 32, 64)                  0       
____________________________________________________________________________________________
 s3b_pt_relu (ReLU)                      (1, 32, 32, 64)                  0       
____________________________________________________________________________________________
depthwise_conv_4 (ConvolutionDepthwise)  (1, 32, 32, 224)                5600     
____________________________________________________________________________________________
 dw_add_s3a (EltwiseAdd)                 (1, 32, 32, 224)                 0       
____________________________________________________________________________________________
 s3a_dw_relu (ReLU)                      (1, 32, 32, 224)                 0       
____________________________________________________________________________________________
conv_4 (Convolution3d)                   (1, 32, 32, 64)                14336     
____________________________________________________________________________________________
 s3a_pt_bias (EltwiseAdd)                (1, 32, 32, 64)                  0       
____________________________________________________________________________________________
 s3a_pt_relu (ReLU)                      (1, 32, 32, 64)                  0       
____________________________________________________________________________________________
 concat_s3 (Concat)                      (1, 32, 32, 128)                 0       
____________________________________________________________________________________________
avg_pool_2 (AveragePooling)              (1, 32, 32, 448)                 0       
____________________________________________________________________________________________
split_2 (Split)                          (1, 32, 32, 224)                 0       
                                         (1, 32, 32, 224)                         
____________________________________________________________________________________________
depthwise_conv_3 (ConvolutionDepthwise)  (1, 32, 32, 224)                2016     
____________________________________________________________________________________________
 dw_add_s2b (EltwiseAdd)                 (1, 32, 32, 224)                 0       
____________________________________________________________________________________________
 s2b_dw_relu (ReLU)                      (1, 32, 32, 224)                 0       
____________________________________________________________________________________________
conv_3 (Convolution3d)                   (1, 32, 32, 64)                14336     
____________________________________________________________________________________________
 s2b_pt_bias (EltwiseAdd)                (1, 32, 32, 64)                  0       
____________________________________________________________________________________________
 s2b_pt_relu (ReLU)                      (1, 32, 32, 64)                  0       
____________________________________________________________________________________________
depthwise_conv_2 (ConvolutionDepthwise)  (1, 32, 32, 224)                5600     
____________________________________________________________________________________________
 dw_add_s2a (EltwiseAdd)                 (1, 32, 32, 224)                 0       
____________________________________________________________________________________________
 s2a_dw_relu (ReLU)                      (1, 32, 32, 224)                 0       
____________________________________________________________________________________________
conv_2 (Convolution3d)                   (1, 32, 32, 64)                14336     
____________________________________________________________________________________________
 s2a_pt_bias (EltwiseAdd)                (1, 32, 32, 64)                  0       
____________________________________________________________________________________________
 s2a_pt_relu (ReLU)                      (1, 32, 32, 64)                  0       
____________________________________________________________________________________________
 concat_s2 (Concat)                      (1, 32, 32, 128)                 0       
____________________________________________________________________________________________
avg_pool_1 (AveragePooling)              (1, 32, 32, 448)                 0       
____________________________________________________________________________________________
split_1 (Split)                          (1, 32, 32, 224)                 0       
                                         (1, 32, 32, 224)                         
____________________________________________________________________________________________
depthwise_conv_1 (ConvolutionDepthwise)  (1, 32, 32, 224)                2016     
____________________________________________________________________________________________
 dw_add_s1b (EltwiseAdd)                 (1, 32, 32, 224)                 0       
____________________________________________________________________________________________
 s1b_dw_relu (ReLU)                      (1, 32, 32, 224)                 0       
____________________________________________________________________________________________
conv_1 (Convolution3d)                   (1, 32, 32, 64)                14336     
____________________________________________________________________________________________
 s1b_pt_bias (EltwiseAdd)                (1, 32, 32, 64)                  0       
____________________________________________________________________________________________
 s1b_pt_relu (ReLU)                      (1, 32, 32, 64)                  0       
____________________________________________________________________________________________
depthwise_conv (ConvolutionDepthwise)    (1, 32, 32, 224)                5600     
____________________________________________________________________________________________
 dw_add_s1a (EltwiseAdd)                 (1, 32, 32, 224)                 0       
____________________________________________________________________________________________
 s1a_dw_relu (ReLU)                      (1, 32, 32, 224)                 0       
____________________________________________________________________________________________
conv (Convolution3d)                     (1, 32, 32, 64)                14336     
____________________________________________________________________________________________
 s1a_pt_bias (EltwiseAdd)                (1, 32, 32, 64)                  0       
____________________________________________________________________________________________
 s1a_pt_relu (ReLU)                      (1, 32, 32, 64)                  0       
____________________________________________________________________________________________
 concat_s1_chkpt (Concat)                (1, 32, 32, 128)                 0       
____________________________________________________________________________________________
 concat_all (Concat)                     (1, 32, 32, 832)                 0       
____________________________________________________________________________________________
 final_pt_conv (Convolution3d)           (1, 32, 32, 128)               106496    
____________________________________________________________________________________________
======================================================
      Tiling operators of the network...
======================================================
Tiling  bn8_relu (ReLU).
  Tiled Tensor bn8_add_tensor/output0:
    original tensor shape: (1, 32, 32, 448)
    tile shape (1, 262144), number of tiles: 2
…
