…
Adding  add_inp_conv (EltwiseAdd).
Adding data_24 (Data).
Adding conv7 (Convolution3d).
Adding data_25 (Data).
Adding bn7_add_tensor (EltwiseAdd).
Adding  final_relu (ReLU).
======================================================
      Summary of the network.
======================================================
____________________________________________________________________________________________
Layer (type)                             Output shape                 Parameters  
____________________________________________________________________________________________
data_25 (Data)                           (1, 48, 48, 12)                  0       
____________________________________________________________________________________________
data_24 (Data)                           (12, 3, 3, 32)                   0       
____________________________________________________________________________________________
data_23 (Data)                           (1, 48, 48, 32)                  0       
____________________________________________________________________________________________
data_22 (Data)                           (32, 3, 3, 32)                   0       
____________________________________________________________________________________________
data_21 (Data)                           (1, 48, 48, 32)                  0       
____________________________________________________________________________________________
data_20 (Data)                           (32, 3, 3, 32)                   0       
____________________________________________________________________________________________
data_19 (Data)                           (1, 48, 48, 32)                  0       
____________________________________________________________________________________________
data_18 (Data)                           (32, 3, 3, 32)                   0       
____________________________________________________________________________________________
data_17 (Data)                           (1, 48, 48, 32)                  0       
____________________________________________________________________________________________
data_16 (Data)                           (32, 3, 3, 32)                   0       
____________________________________________________________________________________________
data_15 (Data)                           (1, 48, 48, 32)                  0       
____________________________________________________________________________________________
data_14 (Data)                           (32, 3, 3, 32)                   0       
____________________________________________________________________________________________
data_13 (Data)                           (1, 48, 48, 32)                  0       
____________________________________________________________________________________________
data_12 (Data)                           (32, 3, 3, 32)                   0       
____________________________________________________________________________________________
data_11 (Data)                           (1, 48, 48, 32)                  0       
____________________________________________________________________________________________
data_10 (Data)                           (32, 3, 3, 32)                   0       
____________________________________________________________________________________________
data_9 (Data)                            (1, 48, 48, 32)                  0       
____________________________________________________________________________________________
data_8 (Data)                            (32, 3, 3, 32)                   0       
____________________________________________________________________________________________
data_7 (Data)                            (1, 48, 48, 32)                  0       
____________________________________________________________________________________________
data_6 (Data)                            (32, 3, 3, 32)                   0       
____________________________________________________________________________________________
data_5 (Data)                            (1, 48, 48, 32)                  0       
____________________________________________________________________________________________
data_4 (Data)                            (32, 3, 3, 32)                   0       
____________________________________________________________________________________________
data_3 (Data)                            (1, 48, 48, 32)                  0       
____________________________________________________________________________________________
data_2 (Data)                            (32, 3, 3, 32)                   0       
____________________________________________________________________________________________
data_1 (Data)                            (1, 48, 48, 32)                  0       
____________________________________________________________________________________________
data (Data)                              (32, 3, 3, 3)                    0       
____________________________________________________________________________________________
input (Data)                             (1, 48, 48, 3)                   0       
____________________________________________________________________________________________
conv0 (Convolution3d)                    (1, 48, 48, 32)                 864      
____________________________________________________________________________________________
bn0_add_tensor (EltwiseAdd)              (1, 48, 48, 32)                  0       
____________________________________________________________________________________________
conv1_1 (Convolution3d)                  (1, 48, 48, 32)                 9216     
____________________________________________________________________________________________
bn1 _1 (EltwiseAdd)                      (1, 48, 48, 32)                  0       
____________________________________________________________________________________________
relu1 _1 (ReLU)                          (1, 48, 48, 32)                  0       
____________________________________________________________________________________________
conv1_2 (Convolution3d)                  (1, 48, 48, 32)                 9216     
____________________________________________________________________________________________
bn1 _2 (EltwiseAdd)                      (1, 48, 48, 32)                  0       
____________________________________________________________________________________________
add1 (EltwiseAdd)                        (1, 48, 48, 32)                  0       
____________________________________________________________________________________________
conv1_1_1 (Convolution3d)                (1, 48, 48, 32)                 9216     
____________________________________________________________________________________________
bn1 _1_1 (EltwiseAdd)                    (1, 48, 48, 32)                  0       
____________________________________________________________________________________________
relu1 _1_1 (ReLU)                        (1, 48, 48, 32)                  0       
____________________________________________________________________________________________
conv1_2_1 (Convolution3d)                (1, 48, 48, 32)                 9216     
____________________________________________________________________________________________
bn1 _2_1 (EltwiseAdd)                    (1, 48, 48, 32)                  0       
____________________________________________________________________________________________
add1_1 (EltwiseAdd)                      (1, 48, 48, 32)                  0       
____________________________________________________________________________________________
conv1_1_2 (Convolution3d)                (1, 48, 48, 32)                 9216     
____________________________________________________________________________________________
bn1 _1_2 (EltwiseAdd)                    (1, 48, 48, 32)                  0       
____________________________________________________________________________________________
relu1 _1_2 (ReLU)                        (1, 48, 48, 32)                  0       
____________________________________________________________________________________________
conv1_2_2 (Convolution3d)                (1, 48, 48, 32)                 9216     
____________________________________________________________________________________________
bn1 _2_2 (EltwiseAdd)                    (1, 48, 48, 32)                  0       
____________________________________________________________________________________________
add1_2 (EltwiseAdd)                      (1, 48, 48, 32)                  0       
____________________________________________________________________________________________
conv1_1_3 (Convolution3d)                (1, 48, 48, 32)                 9216     
____________________________________________________________________________________________
bn1 _1_3 (EltwiseAdd)                    (1, 48, 48, 32)                  0       
____________________________________________________________________________________________
relu1 _1_3 (ReLU)                        (1, 48, 48, 32)                  0       
____________________________________________________________________________________________
conv1_2_3 (Convolution3d)                (1, 48, 48, 32)                 9216     
____________________________________________________________________________________________
bn1 _2_3 (EltwiseAdd)                    (1, 48, 48, 32)                  0       
____________________________________________________________________________________________
add1_3 (EltwiseAdd)                      (1, 48, 48, 32)                  0       
____________________________________________________________________________________________
conv1_1_4 (Convolution3d)                (1, 48, 48, 32)                 9216     
____________________________________________________________________________________________
bn1 _1_4 (EltwiseAdd)                    (1, 48, 48, 32)                  0       
____________________________________________________________________________________________
relu1 _1_4 (ReLU)                        (1, 48, 48, 32)                  0       
____________________________________________________________________________________________
conv1_2_4 (Convolution3d)                (1, 48, 48, 32)                 9216     
____________________________________________________________________________________________
bn1 _2_4 (EltwiseAdd)                    (1, 48, 48, 32)                  0       
____________________________________________________________________________________________
add1_4 (EltwiseAdd)                      (1, 48, 48, 32)                  0       
____________________________________________________________________________________________
conv6_chkpt (Convolution3d)              (1, 48, 48, 32)                 9216     
____________________________________________________________________________________________
bn6_add_tensor (EltwiseAdd)              (1, 48, 48, 32)                  0       
____________________________________________________________________________________________
 add_inp_conv (EltwiseAdd)               (1, 48, 48, 32)                  0       
____________________________________________________________________________________________
conv7 (Convolution3d)                    (1, 48, 48, 12)                 3456     
____________________________________________________________________________________________
bn7_add_tensor (EltwiseAdd)              (1, 48, 48, 12)                  0       
____________________________________________________________________________________________
 final_relu (ReLU)                       (1, 48, 48, 12)                  0       
____________________________________________________________________________________________
======================================================
      Tiling operators of the network...
======================================================
Tiling  add_inp_conv (EltwiseAdd).
  Tiled Tensor bn6_add_tensor/output0:
    original tensor shape: (1, 48, 48, 32)
    tile shape (1, 73728), number of tiles: 1
…
